policy.pt (torch, 29339 bytes, 12 tensors)

lstm1.weight_ih f4 [96, 5]
0	0x3e129a2a	0.14316621
1	0xbe3f7e88	-0.18700612
2	0x3e0ba6e7	0.13637887
3	0x3e37a0e1	0.17932464
4	0xbe2b4d71	-0.1672876
5	0x3e4d797d	0.20065875
6	0xbc01f2ba	-0.007931406
7	0x3cc9b7a2	0.024623696
8	0x3e2870e0	0.16449308
9	0xbe34af8f	-0.17645095
10	0xbd6bdb8b	-0.05758242
11	0x3e387217	0.18012272
12	0x3cfedde3	0.031111663
13	0x3d49856b	0.049199503
14	0x3dbe76fc	0.09300038
15	0xbd588af7	-0.052866902
16	0x3ddaedf3	0.106899165
17	0x3d65f61f	0.056142922
18	0x3e0d0bba	0.13774005
19	0x3d130cce	0.035900883
20	0xbe3569eb	-0.17716186
21	0xbd9b90b0	-0.07595956
22	0x3e2b3bb2	0.1672199
23	0x3e03bcb2	0.1286495
24	0x3d2e9c7c	0.042629704
25	0x3db66168	0.089052975
26	0x3e41c93b	0.1892442
27	0x3daa9713	0.08329596
28	0x3e04e45a	0.12977734
29	0x3c0d246d	0.008614642
30	0xbe4c35bc	-0.19942373
31	0x3c2cd2e4	0.010548327
32	0xbde2f0e9	-0.11081106
33	0x3e02aa20	0.1276021
34	0x3e35fc92	0.17772129
35	0xbe15650d	-0.14589329
36	0xbda71a0b	-0.08159264
37	0x3da6a9d4	0.08137861
38	0xbde8d01e	-0.1136782
39	0x3cea1cf2	0.028578255
40	0x3d831277	0.06400006
41	0x3dfa46cf	0.12220537
42	0xbd2be0ac	-0.04196231
43	0x3ca81806	0.020519268
44	0x3d940ba8	0.07228786
45	0xbc7dc783	-0.015489462
46	0x3d02488f	0.03180748
47	0xbd29f42c	-0.041492626
48	0x3e446470	0.19178939
49	0x3e262415	0.16224702
50	0x3e4851eb	0.19562499
51	0x3e292f31	0.16521908
52	0x3d75c4fc	0.060002312
53	0xbd46a42d	-0.048496414
54	0x3e08daf5	0.13364775
55	0xbd2f7bfa	-0.042842843
56	0xbddc4303	-0.10754969
57	0xbda19887	-0.078904204
58	0xba458a89	-0.0007535597
59	0x3d3a5f30	0.045500934
60	0x3b7b94d8	0.0038388278
61	0xbdbe7f16	-0.093015835
62	0xbd5b5665	-0.05354919
63	0xbe228c38	-0.15873802
64	0xbe1ee55a	-0.15517178
65	0x3e04a821	0.12954761
66	0xbe4f1341	-0.20222189
67	0x3e13eb05	0.14445122
68	0xbe108857	-0.1411451
69	0x3d2751df	0.040849563
70	0xbd172544	-0.036900774
71	0xbe0fd92a	-0.14047685
72	0x3e41de4a	0.18932453
73	0xbb9a505a	-0.0047092857
74	0xbdaebcd7	-0.08532112
75	0xbd28ba06	-0.04119303
76	0xbcef3ba0	-0.029203236
77	0xbe391d6e	-0.18077633
78	0xbe1fb5f4	-0.15596753
79	0xbe11bc1f	-0.14231919
80	0x3dc02f3e	0.09384011
81	0x3e0119a0	0.12607431
82	0x3de7179f	0.11283802
83	0x3e05bca1	0.13060237
84	0xbd26bf15	-0.040709574
85	0x3e0a051b	0.1347851
86	0xbd98ff09	-0.07470519
87	0x3e2c9fec	0.1685788
88	0x3ce0df9b	0.027450373
89	0x3b0a6d96	0.0021122447
90	0xbd4adbf1	-0.04952616
91	0x3b08e2cf	0.0020887142
92	0xbde2a457	-0.110665016
93	0x3e420441	0.18946935
94	0x3e038b25	0.12846048
95	0x3be64291	0.0070269783
96	0xbe47936a	-0.19489828
97	0x3b8627af	0.004094086
98	0xbd7aeb86	-0.06125977
99	0x3e47c8db	0.19510214
100	0x3ae91dbd	0.0017785352
101	0x3dedad19	0.116052814
102	0xbdfba5c6	-0.12287478
103	0x3d9c9a2d	0.07646594
104	0x3bf09c19	0.007342827
105	0x3e0bd063	0.13653712
106	0x3ca776b7	0.02044235
107	0xbcf286dd	-0.029605323
108	0x3da61abf	0.0811057
109	0x3de69d7a	0.11260505
110	0xbcc7f324	-0.02440793
111	0xbdaec225	-0.08533124
112	0xbe4064f5	-0.18788512
113	0xbc490cae	-0.0122710895
114	0x3e02549f	0.12727593
115	0x3e39de64	0.18151242
116	0xbdd7124e	-0.10501538
117	0xbe01862a	-0.12648836
118	0x3d0002ae	0.031252556
119	0xbd8f97ca	-0.07011373
120	0xbe050c38	-0.12992942
121	0x3da64df8	0.0812034
122	0x3e321cf2	0.17393854
123	0x3e1a14ff	0.15047072
124	0xbe4cc8e1	-0.19998504
125	0xbdf4b2d2	-0.1194817
126	0x3e40a138	0.188115
127	0x3d24168e	0.040060572
128	0xbc8f9145	-0.017525325
129	0x3d5a972f	0.053366836
130	0xbe286b59	-0.164472
131	0xbd4eedb7	-0.05051967
132	0xbc35afef	-0.011089309
133	0x3d37415f	0.044740077
134	0xbe192a1d	-0.14957471
135	0xbd31da19	-0.043420885
136	0xbd9ee406	-0.07758336
137	0xbd4583e6	-0.04822149
138	0xbe48cc1f	-0.19609116
139	0xbdcea86a	-0.10090716
140	0x3cc00089	0.023437755
141	0xbd84283d	-0.06452987
142	0x3e1c7770	0.15279937
143	0xbd0a7f8c	-0.033813044
144	0x3acc884b	0.0015604583
145	0xbdb4aa59	-0.08821554
146	0xbdf6b54a	-0.12046297
147	0xbe29fcda	-0.16600361
148	0x3d63afa7	0.055587437
149	0xbdac8239	-0.084232755
150	0xbd81f836	-0.063461706
151	0xbc3f7b31	-0.011687086
152	0xbdbc6837	-0.09199565
153	0xbe154bd8	-0.14579713
154	0x3e30305f	0.17205952
155	0x3db2806b	0.087159
156	0xbd8196b4	-0.063275725
157	0xbe41ce04	-0.18926245
158	0x3e3a779d	0.18209691
159	0xbd8e8336	-0.0695862
160	0x3df36865	0.11885146
161	0x3be95613	0.0071208565
162	0xbe4b0081	-0.19824411
163	0x3d9ca0ec	0.07647881
164	0x3dc9b8f6	0.098497316
165	0x3cac730e	0.021050956
166	0x3ca0107f	0.019539116
167	0x3d2d2e50	0.042280495
168	0x3d64dd1e	0.055874936
169	0x3d83be87	0.064328246
170	0x3dd1b071	0.10238732
171	0x3d20ee67	0.03928986
172	0x3d706d81	0.05869818
173	0x3dba9385	0.09110168
174	0x3e22a0b4	0.15881616
175	0x3de2d234	0.11075249
176	0xbd0e5654	-0.034750298
177	0xbdddd135	-0.10830919
178	0x3d27ad24	0.040936604
179	0xbda0d893	-0.07853808
180	0x3d826eb8	0.06368774
181	0x3e0c35f0	0.1369245
182	0xbe3d7b47	-0.18504058
183	0xbe05ebaa	-0.1307818
184	0xbe3250ac	-0.17413586
185	0x3d05c1ee	0.03265565
186	0xbb87f7dd	-0.0041494207
187	0x3de23722	0.11045672
188	0x3c0a6cc5	0.008448784
189	0xbe13033e	-0.14356706
190	0x3c221070	0.009891614
191	0xbdb5f44a	-0.08884485
192	0xbe395965	-0.18100508
193	0x3bd9c3bc	0.006645648
194	0xbcf66165	-0.030075738
195	0x3d355d57	0.04427847
196	0x3c672559	0.0141080255
197	0xbe38336e	-0.17988369
198	0x3de7f464	0.11325911
199	0xbdbe88aa	-0.0930341
200	0x3dd64cd1	0.1046387
201	0x3d5d527c	0.05403374
202	0xbd886faf	-0.06661927
203	0x3d6c7699	0.05773029
204	0x3d3fe2ae	0.046847038
205	0xbe424056	-0.18969855
206	0xbe0fb22f	-0.14032815
207	0x3e0a33fe	0.13496396
208	0x3d276be6	0.040874384
209	0xbde97b0c	-0.114004225
210	0x3e0a6c84	0.13517958
211	0x3e21ddb7	0.15807234
212	0xbdc81579	-0.097697206
213	0x3dd9cbe3	0.106345914
214	0xbe4d6343	-0.20057397
215	0xbe4b9662	-0.19881585
216	0x3de576a5	0.1120427
217	0x3de4a575	0.11164371
218	0x3d29f32d	0.041491676
219	0x3b7aa2c1	0.0038243982
220	0x3e00e5e7	0.12587701
221	0x3dc1d830	0.094650626
222	0xbc5cfbaf	-0.01348774
223	0x3d30f8a4	0.043205872
224	0x3e2ce408	0.16883862
225	0x3d5ad8a1	0.05342925
226	0xbd55189d	-0.052025426
227	0xbe2cea5b	-0.16886275
228	0xbe39d8de	-0.18149135
229	0xbe33a693	-0.17544012
230	0xbda42f03	-0.08016779
231	0xbdc5f3f7	-0.09665673
232	0x3e36bd9b	0.17845766
233	0xbd786d34	-0.06065102
234	0xbe0fc5d1	-0.14040305
235	0xbd57cdcb	-0.052686494
236	0xbc8ea2b3	-0.017411565
237	0xbe3a28bb	-0.181796
238	0x3e034471	0.12819077
239	0x3e0db52e	0.13838646
240	0xbe347d62	-0.17625955
241	0x3e10b02f	0.14129709
242	0x3dfd3bde	0.123649344
243	0x3db60f6d	0.08889661
244	0x3db1f919	0.0869009
245	0xbe14362a	-0.14473787
246	0x3e1c92c8	0.15290368
247	0xbe3972d0	-0.18110204
248	0xbe48679a	-0.19570771
249	0x3dc23116	0.09482019
250	0xbe24c129	-0.1608931
251	0xbe260bc0	-0.1621542
252	0x3daf2e93	0.08553805
253	0x3dce425a	0.10071249
254	0x3dc5583b	0.09635969
255	0x3da4820a	0.080326155

lstm1.weight_hh f4 [96, 24]
0	0xbc6d91c5	-0.014500086
1	0xbe070c9e	-0.13188407
2	0xbd97525a	-0.07388754
3	0x3de9a09b	0.11407586
4	0xbd86d1b5	-0.06582967
5	0xbd087236	-0.033312045
6	0x3e0d151c	0.13777584
7	0x3e1b2535	0.15150912
8	0xbddc05c3	-0.107432865
9	0xbd3080df	-0.04309165
10	0xbc0cb6e9	-0.008588531
11	0xbca6e1a7	-0.020371271
12	0xbe208a39	-0.15677728
13	0xbd6270b5	-0.055283267
14	0xbdd057ce	-0.101729974
15	0xbdf37c5f	-0.11888956
16	0x3e0aaf7e	0.13543507
17	0xbdcf8f37	-0.10134738
18	0xbd0d4bc5	-0.034496088
19	0x3e330dea	0.17485777
20	0x3c24dffa	0.010063166
21	0xbdc76836	-0.097366735
22	0xbdb469c8	-0.08809239
23	0xbdae2367	-0.08502846
24	0x3e2dcdaa	0.16972986
25	0x3e17148a	0.14753929
26	0x3d1e527c	0.038652882
27	0x3e28b411	0.1647494
28	0xbd8bcaf5	-0.0682582
29	0xbbd82cea	-0.006597151
30	0x3d1a376c	0.03765051
31	0x3e3b790c	0.18307894
32	0xbcb24162	-0.021759693
33	0xbca6e53a	-0.020372976
34	0xbd9cd276	-0.0765733
35	0xbdad61f8	-0.08465952
36	0x3d9b9773	0.07597246
37	0x3c2ede5e	0.010673134
38	0x3e033640	0.12813663
39	0xbe0bfbaf	-0.13670228
40	0x3e095ff7	0.13415514
41	0xbd82de87	-0.063901
42	0x3e009ffa	0.12561026
43	0x3e33d63f	0.17562197
44	0xbc88bce5	-0.016691634
45	0xbe060b01	-0.13090135
46	0x3df8af05	0.12142757
47	0xbd96356e	-0.0733441
48	0x3d7db0ee	0.06193631
49	0xbca6bf6a	-0.020354945
50	0x3e12c245	0.1433192
51	0xbe069626	-0.13143215
52	0xbe0c24bf	-0.13685893
53	0x3d269015	0.04066475
54	0x3d932304	0.07184413
55	0xbe3c9d4b	-0.18419378
56	0xbd297e4a	-0.041380204
57	0xbe4498c6	-0.19198903
58	0xbd418571	-0.0472464
59	0x3e2fb0f5	0.17157348
60	0xbd5447ab	-0.05182616
61	0xbdfe78d2	-0.124253884
62	0x3a978963	0.001156133
63	0xbe166582	-0.1468716
64	0xbace42d6	-0.0015736471
65	0x3cca5afc	0.024701588
66	0xbdea92c3	-0.11453774
67	0xbdbd6a00	-0.092487335
68	0x3e43a42d	0.19105597
69	0x3e366026	0.17810115
70	0xbe4dc775	-0.20095618
71	0xbe4e6843	-0.2015696
72	0xbb7f10de	-0.0038919966
73	0x3e452579	0.19252576
74	0x3e1cb4a1	0.1530328
75	0x3d8a9a47	0.06767707
76	0x3d3e9d07	0.04653647
77	0x3aabdc1a	0.001311186
78	0x3dccdb1e	0.10002731
79	0xbdf78922	-0.12086703
80	0x3d8bb3c0	0.06821394
81	0xbde8964d	-0.113567926
82	0x3c95cd78	0.018286452
83	0xbde795aa	-0.11307843
84	0xbe4c2791	-0.19936968
85	0xbe4a92b6	-0.19782528
86	0x3e137525	0.14400156
87	0xbe179e49	-0.14806475
88	0x3d8f5ec9	0.07000501
89	0x3e182b85	0.14860351
90	0xbe2d55f0	-0.16927314
91	0x3c4688df	0.012117594
92	0x3e072e9c	0.13201374
93	0xbe505194	-0.2034362
94	0xbdfdfc72	-0.12401666
95	0x3dc13ec0	0.09435797
96	0x3dd86f79	0.10568137
97	0x3e374c52	0.17900208
98	0x3d9fdad9	0.07805414
99	0xbe3dc41d	-0.18531843
100	0x3d169915	0.036767084
101	0x3dc3cf4e	0.095610246
102	0xbd63fe16	-0.055662237
103	0x3e26d3ce	0.16291735
104	0xbd529142	-0.05140806
105	0xbd669fa5	-0.056304593
106	0x3e2dca45	0.16971691
107	0x3e307067	0.17230378
108	0xbe13c971	-0.14432313
109	0xbe0a47f8	-0.13504016
110	0x3c0f68c0	0.008753002
111	0x3e3d6d8f	0.18498825
112	0xbc0e62f6	-0.008690586
113	0xbdde42ba	-0.10852571
114	0xbdbb2e94	-0.091397434
115	0xbe368e04	-0.17827612
116	0xbd0d1a45	-0.03444888
117	0x3e237503	0.15962605
118	0x3d188ce8	0.037243754
119	0xbe1dc713	-0.15407972
120	0xbe127b6d	-0.14304896
121	0x3df4c91f	0.11952423
122	0xbd760619	-0.06006441
123	0x3d6207e4	0.055183306
124	0x3dbec843	0.09315541
125	0xbdd087b2	-0.10182132
126	0xbd3be609	-0.045873675
127	0xbe27fb57	-0.16404472
128	0x3e19e6ff	0.15029524
129	0xbe2bc59d	-0.16774602
130	0x3e42fa52	0.19040802
131	0xbe0786f8	-0.1323508
132	0x3dc70261	0.097172506
133	0x3dbb6467	0.091500096
134	0x3d92767b	0.071515046
135	0x3e079876	0.13241753
136	0xbdc1a441	-0.09455157
137	0xbe126c46	-0.14299116
138	0x3e094782	0.13406184
139	0x3e2f02c7	0.17090903
140	0x3db4309a	0.087983325
141	0x3e3aa87a	0.18228331
142	0xbe2ba29b	-0.16761248
143	0x3e4c27ab	0.19937007
144	0xbd5772c1	-0.052599672
145	0xbc995e50	-0.01872173
146	0x3db0b5ee	0.0862845
147	0x3dd6780a	0.104721144
148	0xbdb5894e	-0.088640794
149	0x3db7aeb1	0.089688666
150	0xbb213774	-0.0024599703
151	0xbdacfb34	-0.08446351
152	0x3d6e8cf2	0.058239885
153	0x3d413e82	0.047178753
154	0xbe31c228	-0.17359221
155	0x3e28445f	0.16432332
156	0x3d883b6a	0.06651957
157	0x3e2d0389	0.1689588
158	0x3e461192	0.1934264
159	0x3da3ffab	0.08007749
160	0xbd98d34d	-0.074621774
161	0x3d802012	0.06256117
162	0x3e3540f7	0.17700563
163	0x3e1dda50	0.15415311
164	0x3c2e2e83	0.010631206
165	0x3e467cea	0.19383588
166	0xbdff3752	-0.124617234
167	0xbc4edb03	-0.012625459
168	0x3e26d470	0.16291976
169	0xbdcb7a9c	-0.09935495
170	0xbdc9d57d	-0.09855173
171	0x3d52128d	0.051287223
172	0xbd81e31c	-0.06342146
173	0x3cb9d588	0.022684827
174	0xbc174607	-0.009233004
175	0x3e3af31a	0.18256798
176	0x3cbea467	0.023271753
177	0x3e0fbac7	0.14036094
178	0x3c9299f6	0.01789568
179	0xbdec407e	-0.115357384
180	0x3e4d47f1	0.20046975
181	0x3daeda0e	0.085376844
182	0xbd15091a	-0.036385633
183	0xbe417175	-0.18890937
184	0xbdd88ba8	-0.10573512
185	0x3e00c7a8	0.12576163
186	0x3ddbeb85	0.10738281
187	0x3dc5b795	0.09654156
188	0x3d44ca39	0.048044417
189	0x3d8a0a51	0.06740249
190	0xbdf7fbea	-0.12108596
191	0x3dffcb63	0.12489965
192	0x3d7ff725	0.062491555
193	0xbe22c729	-0.15896286
194	0xbdd42a15	-0.10359589
195	0xbde7fa6d	-0.11327062
196	0x3e35cdb7	0.17754255
197	0x3d8c3105	0.06845287
198	0x3e4c2033	0.19934158
199	0xbd13a8e2	-0.03604973
200	0x3e500d1b	0.203175
201	0xbdfe2c36	-0.12410776
202	0xbdf240e9	-0.11828787
203	0x3d0f2726	0.034949444
204	0xbc906299	-0.01762514
205	0x3dfb6858	0.12275761
206	0x3dee5865	0.11637954
207	0xbd43eea3	-0.047835004
208	0x3e2e1ea6	0.17003879
209	0xbe27fd27	-0.16405164
210	0x3d873a5f	0.0660293
211	0x3b91f58a	0.0044543194
212	0x3e21e6e3	0.15810733
213	0x3df1f950	0.11815131
214	0x3dd5024d	0.104008295
215	0x3e07b32a	0.1325194
216	0x3df88979	0.12135596
217	0x3e4ae165	0.19812544
218	0x3df70f3e	0.12063454
219	0xbe154b5d	-0.1457953
220	0xbe50f7e8	-0.20407069
221	0x3d5acf85	0.053420562
222	0x3e4dc65a	0.20095196
223	0x3d122ff8	0.035690278
224	0xbcedcd6d	-0.029028619
225	0xbe27e406	-0.16395578
226	0x3dcb5187	0.099276595
227	0x3cf36eb2	0.02971587
228	0xbba3cd3a	-0.00499883
229	0xbdb5d353	-0.088781975
230	0xbdfc378f	-0.123152845
231	0xbd486b59	-0.0489305
232	0x3db38349	0.08765275
233	0x3e285a17	0.16440617
234	0x3d3b997d	0.045800675
235	0xbdac0c57	-0.08400791
236	0x3dcda173	0.100405596
237	0x3dde1940	0.1084466
238	0x3e34c13e	0.17651841
239	0x3e33c992	0.17557362
240	0x3cd37092	0.025810514
241	0xbe1a956c	-0.15096062
242	0x3dd5a52a	0.10431893
243	0x3e09bfc1	0.13452055
244	0x3cfa3150	0.030541092
245	0x3e26a118	0.1627239
246	0xbe153993	-0.14572744
247	0xbe0499ab	-0.12949245
248	0xbdf7f62f	-0.12107503
249	0x3c65ff4e	0.01403792
250	0x3e183705	0.14864738
251	0x3cb23a30	0.021756262
252	0x3e4b9d82	0.19884303
253	0xbe12b6b3	-0.14327507
254	0x3dc085c4	0.09400514
255	0xbe19fa05	-0.15036781

lstm1.bias_ih f4 [96]
0	0x3dfbece9	0.123010464
1	0x3d39f68d	0.045401145
2	0xbe00010c	-0.125004
3	0xbe38f95d	-0.18063875
4	0xbcbf78b1	-0.02337298
5	0xbdcb2b1a	-0.0992033
6	0x3debd0ac	0.115144104
7	0xbddca3ae	-0.10773407
8	0xbd1cd53b	-0.03828929
9	0x3e0750df	0.13214444
10	0xbc9b349d	-0.018945986
11	0x3e19820f	0.1499102
12	0xbd2ad981	-0.041711334
13	0xbd431b5e	-0.04763352
14	0x3d73c3c4	0.05951287
15	0x3d656e05	0.056013126
16	0xbe2d47ae	-0.16921875
17	0xbdad58d5	-0.08464209
18	0xbe07b65f	-0.13253163
19	0xbe46f1d3	-0.19428186
20	0x3d2b6293	0.041842055
21	0xbe4ccc22	-0.19999745
22	0x3d1fe3aa	0.039035477
23	0xbd679cdc	-0.056546077
24	0x3dd4e9c4	0.1039615
25	0xbe1d1b18	-0.15342367
26	0xbe2c17bc	-0.16805929
27	0xbccb7ec8	-0.024840727
28	0xbc97e327	-0.018540932
29	0x3e05e7cd	0.13076706
30	0xbd655e26	-0.05599799
31	0x3df235da	0.118266776
32	0x3cb612d5	0.022225777
33	0xbd48dc54	-0.049038246
34	0xbdda0ab5	-0.106465735
35	0xbe05245d	-0.13002153
36	0xbdccd7b9	-0.10002083
37	0xbdcf10a5	-0.101105966
38	0x3d46d305	0.048541088
39	0xbb5ce6f7	-0.0033707002
40	0xbd9141ec	-0.07092652
41	0x3d5b255b	0.05350242
42	0x3db4d187	0.08829027
43	0xbe38286e	-0.17984173
44	0xbc522ad7	-0.012827597
45	0xbdabb88f	-0.08384811
46	0xbe4010b3	-0.1875637
47	0xbe06aeca	-0.13152614
48	0xbd6bf352	-0.057605095
49	0xbe29c38f	-0.16578506
50	0xbbe475a7	-0.006972033
51	0x3e490e5c	0.19634384
52	0xbe4dc2a4	-0.20093781
53	0xbc5608d8	-0.013063632
54	0xbd4d08f8	-0.05005738
55	0x3d19601f	0.037445184
56	0xbe310a8c	-0.1728918
57	0xbe07cf14	-0.13262588
58	0xbe38d8ae	-0.18051407
59	0xbab7f928	-0.0014036046
60	0x3e364d48	0.17802918
61	0xbdaa6a1e	-0.083210215
62	0x3e3dddef	0.18541692
63	0xbe07de4c	-0.13268393
64	0x3db14da5	0.08657388
65	0xbe3e63b2	-0.18592718
66	0xbe45972d	-0.1929595
67	0x3db28eab	0.08718618
68	0x3e1a4f34	0.15069276
69	0xbdc7a91c	-0.09749052
70	0x3c75828b	0.014984737
71	0xbdb16ec7	-0.08663707
72	0x3e2b02ec	0.16700333
73	0x3d2a13a8	0.041522652
74	0xbd827758	-0.06370419
75	0x3de28782	0.11061002
76	0xbd22f141	-0.03978086
77	0xbe154d2d	-0.14580221
78	0x3d265e39	0.0406172
79	0x3e0f7ac8	0.14011681
80	0xbe0f758a	-0.14009681
81	0xbd69bd49	-0.057065282
82	0xbcc8b5ac	-0.02450069
83	0xbcc38133	-0.023865318
84	0x3e307b25	0.17234476
85	0xbdfe6152	-0.12420906
86	0x3d4577ae	0.04820984
87	0xbde66122	-0.11248995
88	0x3e2535b2	0.16133764
89	0x3e08d31d	0.13361783
90	0x3d6fe6a1	0.058569554
91	0xbddf880a	-0.10914619
92	0x3cb179b3	0.021664476
93	0x3dcf70c9	0.10128934
94	0x3dd791f2	0.10525884
95	0x3cd15ede	0.025557932

lstm1.bias_hh f4 [96]
0	0xbe38eb0f	-0.18058418
1	0x3d5159de	0.051111095
2	0xbe231efe	-0.15929791
3	0xbd5f2c28	-0.05448547
4	0x3bab5ab0	0.0052293167
5	0x3e2e13ef	0.16999792
6	0x3dac1bd7	0.084037475
7	0xbd21f0d3	-0.03953631
8	0xbe118c2c	-0.14213628
9	0x3e09da27	0.13462125
10	0x3e0b93e7	0.13630639
11	0xbe4985fa	-0.19680014
12	0xbcdddfa3	-0.027084177
13	0x3e09f059	0.13470592
14	0x3c8bfba1	0.01708776
15	0xbe1d9c1e	-0.15391585
16	0xbe34d57f	-0.17659567
17	0x3e08832c	0.13331288
18	0x3e09532e	0.13410637
19	0x3e501bdd	0.20323129
20	0x3d981ed8	0.07427758
21	0xbdef2bc4	-0.116782695
22	0x3db6c2b6	0.08923857
23	0x3e07c3d0	0.1325829
24	0x3e39ab3e	0.1813173
25	0xbe490489	-0.19630636
26	0xbcce0191	-0.025147231
27	0x3e320686	0.17385301
28	0xbe010312	-0.12598827
29	0x3d8fd0b0	0.07022226
30	0xbd809293	-0.06277957
31	0xbd6d2c6c	-0.057903692
32	0xbe342b9f	-0.17594765
33	0xbdfa456b	-0.12220272
34	0x3e2e0e84	0.16997725
35	0x3e447b49	0.19187655
36	0x3d9f0b93	0.077658795
37	0xbca4e824	-0.020130225
38	0x3daee79d	0.085402705
39	0x3e3f97a6	0.18710193
40	0x3c7fe0f9	0.0156176025
41	0xbde2681c	-0.110550135
42	0xbe143423	-0.14473014
43	0xbd778c21	-0.06043637
44	0xbb51a6c6	-0.0031990274
45	0xbe3b1c57	-0.1827253
46	0xbde1eb98	-0.11031264
47	0x3dc0f46d	0.094216205
48	0x3dbc596e	0.09196745
49	0x3ddca189	0.10772998
50	0x3e16ee68	0.14739382
51	0xbdd660c5	-0.10467676
52	0x3dc68dc2	0.09695007
53	0xbde8ef46	-0.11373763
54	0xbd0d86c3	-0.034552347
55	0xbdae2c48	-0.0850454
56	0xbd8d460b	-0.06898125
57	0xbcdac53d	-0.026705379
58	0x3d0447d7	0.032295074
59	0x3d54fadd	0.051997054
60	0xbde9f3e7	-0.11423474
61	0xbe04dcc4	-0.1297484
62	0x3d7dbdd1	0.0619486
63	0xbdc56ec6	-0.09640269
64	0xbc907e35	-0.017638305
65	0xbe1ac67f	-0.15114783
66	0xbd3dacd3	-0.046307396
67	0x3a78afe0	0.00094866566
68	0x3e0906cb	0.13381498
69	0xbe371075	-0.17877372
70	0x3deeb9e7	0.11656552
71	0xbd1908a8	-0.03736177
72	0xbe0cdd40	-0.13756275
73	0xbe213d1e	-0.1574597
74	0x3d24aaf4	0.040202096
75	0xbdafd24b	-0.08585032
76	0x3e2c9580	0.16853905
77	0x3e1edd1c	0.15514034
78	0xbc0ae2db	-0.008476938
79	0x3df41645	0.1191831
80	0xbc9160a1	-0.017746272
81	0xbd272446	-0.040806077
82	0x3e26d669	0.16292728
83	0x3da340b9	0.07971329
84	0xbdb733dc	-0.08945438
85	0xbdfb1f55	-0.122618355
86	0xbccf99c4	-0.025341876
87	0xbd94fcb0	-0.07274759
88	0x3d0b86d8	0.034064144
89	0x3d54cb26	0.05195155
90	0xba9aa3d7	-0.0011798096
91	0x3d9fda2f	0.07805287
92	0xbdb4efeb	-0.08834823
93	0xbdbc805a	-0.092041686
94	0xbdf87b5a	-0.121329024
95	0x3d11c70d	0.03559022

lstm2.weight_ih f4 [96, 6]
0	0xbd9a6611	-0.07538999
1	0x3e494302	0.19654468
2	0xbc972980	-0.018452406
3	0xbc162eaf	-0.009166404
4	0xbdcd0fec	-0.100128025
5	0x3e3bb5d6	0.18331084
6	0xbe0be1e7	-0.13660394
7	0x3dbcbed4	0.09216085
8	0xbd5ee78b	-0.054420035
9	0x3dce6a4f	0.100788705
10	0xbdb6e99c	-0.08931276
11	0xbe349d30	-0.17638087
12	0x3e3cfe9f	0.18456505
13	0xbda04efb	-0.07827564
14	0x3e3e7927	0.18600903
15	0xbe47cb91	-0.19511248
16	0xbca1d707	-0.019755853
17	0x3dafeff8	0.08590692
18	0x3e062301	0.1309929
19	0xbde86b62	-0.11348607
20	0x3d8febc2	0.07027389
21	0x3e00dc64	0.12584072
22	0xbe4e5dbe	-0.20152947
23	0xbd93d905	-0.072191276
24	0x3c86c791	0.016452583
25	0x3d01900f	0.031631526
26	0xbe0fde62	-0.14049676
27	0xbda94046	-0.08264212
28	0xbb8d2ea1	-0.004308537
29	0xbe4531bc	-0.19257253
30	0x3d0dec08	0.034648925
31	0x3df439cd	0.11925087
32	0x3d33181f	0.043724176
33	0x3d42de63	0.047575366
34	0x3da98fdb	0.082793914
35	0x3e185cee	0.148792
36	0x3dfd7d88	0.12377459
37	0xbca08075	-0.019592503
38	0x3d0bc3e0	0.034122348
39	0x3e4a09b3	0.19730262
40	0x3d99365e	0.07481073
41	0xbd12bcd1	-0.0358246
42	0xbe243807	-0.16036998
43	0xbe35f0fe	-0.17767712
44	0xbe1de9b9	-0.1542119
45	0x3d204642	0.039129503
46	0xbad46ec2	-0.0016207325
47	0x3d7561a7	0.05990758
48	0xbe41cbe1	-0.1892543
49	0xbdb030a3	-0.08603027
50	0x3e31a6fa	0.17348853
51	0xbcb54364	-0.02212686
52	0x3df006eb	0.117200695
53	0x3e50f1eb	0.20404784
54	0x3df5532f	0.11978757
55	0x3d795e66	0.06088104
56	0xbe251e7c	-0.1612491
57	0x3de1717a	0.11007972
58	0xbe09e863	-0.13467555
59	0xbe43c2e2	-0.1911731
60	0xbe2483a3	-0.1606584
61	0x3dc45441	0.09586383
62	0xbcc0f13f	-0.023552535
63	0x3e19bf3f	0.15014361
64	0x3e4c26be	0.19936654
65	0xbdeb5d51	-0.11492408
66	0x3d92e9ed	0.07173524
67	0x3ddcce13	0.10781493
68	0xb96b5aeb	-0.00022445216
69	0xbd686cd7	-0.056744423
70	0x3e4427f5	0.19155867
71	0xbd294b9d	-0.041331876
72	0xbe262ba2	-0.16227582
73	0x3db5bc42	0.08873798
74	0x3dbed5e3	0.093181394
75	0x3bc02e69	0.0058649075
76	0xbca4a9a1	-0.020100417
77	0xbdbf950d	-0.09354601
78	0xbd95831e	-0.07300399
79	0x3e2b00b7	0.16699491
80	0xbdc043f9	-0.09387965
81	0xbde81699	-0.11332435
82	0xbe23546a	-0.1595017
83	0x3e2224d0	0.15834355
84	0x3daa4ed0	0.083158135
85	0xbdb3fb6a	-0.08788188
86	0xbccefacd	-0.025266076
87	0x3e48b21b	0.19599192
88	0x3deccc1a	0.11562367
89	0xbe0b3fe9	-0.13598599
90	0x3e4b1e1f	0.19835709
91	0xbe14bbae	-0.14524719
92	0x3e03f18c	0.12885112
93	0xbca30c6e	-0.019903388
94	0x3c1a3b39	0.009413534
95	0xbe4cafae	-0.19988891
96	0xbca39b2a	-0.019971449
97	0xbe1df7bb	-0.15426533
98	0xbe403cc8	-0.18773186
99	0x3d16bf2d	0.036803413
100	0xbdbe5eb1	-0.09295405
101	0xbe489d1f	-0.19591187
102	0x3dfed948	0.12443787
103	0x3dd76657	0.10517567
104	0xbdfe3f4f	-0.12414419
105	0x3e3236dd	0.17403741
106	0x3d68373b	0.056693297
107	0xbd8a7be6	-0.06761913
108	0x3e27fe89	0.16405691
109	0xbbdedb7a	-0.006801066
110	0x3c29e573	0.010369646
111	0x3e396ca5	0.18107851
112	0x3e0debca	0.13859478
113	0xbbc69658	-0.006060403
114	0x3e046e9e	0.12932822
115	0xbd684895	-0.056709845
116	0x3db6d8ae	0.08928047
117	0xbcdf72f0	-0.027276486
118	0xbdddecf8	-0.10836214
119	0xbd2c7b4b	-0.04210977
120	0xbe234afd	-0.15946575
121	0xbe05b298	-0.1305641
122	0x3e0a2005	0.13488777
123	0x3e2f5444	0.17121989
124	0xbd49b0c5	-0.049240846
125	0xbe4af59f	-0.1982026
126	0x3df73a74	0.12071696
127	0x3e3cd742	0.1844149
128	0xbded43d2	-0.11585201
129	0x3db6a8e3	0.08918931
130	0xbe4955a4	-0.19661576
131	0x3e359017	0.17730747
132	0xbd09a206	-0.033601783
133	0xbd0c9500	-0.034321785
134	0xbdfab16d	-0.122408725
135	0xbd9b738c	-0.07590398
136	0xbd9bbf13	-0.07604804
137	0xbe3e07d8	-0.1855768
138	0x3e2882fb	0.16456215
139	0xbe03f2f8	-0.12885654
140	0xbe16efa5	-0.14739855
141	0xbe4448b3	-0.19168358
142	0x3d5f52a2	0.054522164
143	0xbe3d1d53	-0.18468218
144	0xbc66ecce	-0.014094545
145	0xbcef0520	-0.029177248
146	0x3e27ffc4	0.1640616
147	0xbb46fd39	-0.0030363335
148	0xbd9b68b7	-0.07588332
149	0xbdf8d64a	-0.121502474
150	0xbcb170c5	-0.021660218
151	0xbe1deb1a	-0.15421715
152	0x3a8cb07b	0.0010733748
153	0xbd516e55	-0.05113061
154	0xbd88952b	-0.066690765
155	0xbe371570	-0.17879272
156	0xbd631a49	-0.05544499
157	0x3e0f1868	0.13974154
158	0x3e47b2b4	0.19501764
159	0x3dc21c23	0.09478023
160	0xbcda5d98	-0.026655957
161	0x3dc7c83d	0.09754989
162	0x3e3e7c54	0.18602115
163	0xbe29f5fa	-0.16597739
164	0x3d917705	0.07102779
165	0x3ca1f9ef	0.019772498
166	0x3c643489	0.013928541
167	0xbcefb626	-0.02926166
168	0xbe46ad88	-0.19402134
169	0x3e27a23a	0.16370478
170	0xbe075ccc	-0.13218993
171	0xbe0e1dab	-0.13878505
172	0x3c8adf3b	0.016952148
173	0xbd764bdc	-0.06013094
174	0x3e4015ee	0.18758366
175	0xbbc1e237	-0.0059168595
176	0xbd1a32ce	-0.037646107
177	0xbceff9aa	-0.029293854
178	0xbe185018	-0.14874303
179	0x3ddc5331	0.10758055
180	0xbe44e798	-0.19228971
181	0xbd21a2b9	-0.039461825
182	0xbd514618	-0.051092237
183	0x3d3ba8c6	0.04581525
184	0xbcc66af8	-0.024220929
185	0x3d531e63	0.05154265
186	0xbe452e02	-0.19255832
187	0x3e1de911	0.15420939
188	0xbdd8729c	-0.10568735
189	0x3e1f4fca	0.15557781
190	0x3e48a9a8	0.19595969
191	0x3e422a81	0.18961526
192	0x3d0e812c	0.034791157
193	0xbde8f109	-0.11374099
194	0xbe39f974	-0.18161565
195	0x3dde9b31	0.10869444
196	0x3d832bda	0.064048484
197	0x3e206ce6	0.15666541
198	0x3b236a05	0.0024935019
199	0x3e32deb1	0.17467763
200	0xbdc1b9a9	-0.0945924
201	0x3e44ee9a	0.19231644
202	0x3da47ec0	0.08031988
203	0xbde62a91	-0.11238588
204	0x3df37ab7	0.118886404
205	0x3e34e455	0.17665227
206	0xbda753ed	-0.081703044
207	0xbd91443e	-0.07093094
208	0xbe0dd03c	-0.13848966
209	0xbe2e0408	-0.16993725
210	0xbe249a7a	-0.16074553
211	0xbe0029db	-0.12515967
212	0x3e3ae655	0.18251927
213	0x3d8bda1a	0.06828709
214	0x3da1a179	0.078921266
215	0xbc10165b	-0.008794392
216	0xbe1de5c3	-0.15419678
217	0x3d99440b	0.07483681
218	0xbce87b4e	-0.028379109
219	0x3d18a9f8	0.03727147
220	0x3d98fc45	0.074699916
221	0x3e292355	0.16517384
222	0x3dcfc143	0.101442836
223	0xbd1787e2	-0.036994822
224	0xbd4c263d	-0.049841154
225	0x3dc79bb7	0.09746497
226	0xbdfcdf2e	-0.12347256
227	0x3d9bc4eb	0.076059185
228	0xbe3cd7d7	-0.18441711
229	0xbca3e536	-0.020006757
230	0xbd829559	-0.06376142
231	0x3b98d9c9	0.004664634
232	0x3e312a0d	0.17301197
233	0x3e4f9eaa	0.2027537
234	0x3e448878	0.19192684
235	0x3c61d4c2	0.013783636
236	0xbd8cbc86	-0.068718955
237	0x3d4478ba	0.047966696
238	0xbdaafd7b	-0.08349129
239	0x3e2e538c	0.17024058
240	0x3e45255c	0.19252533
241	0xbd43f3b7	-0.047839846
242	0x3d988eb4	0.074490935
243	0x3d0f63e7	0.035007384
244	0xbe0f437a	-0.13990584
245	0xbda92904	-0.08259776
246	0xbe2d5953	-0.16928606
247	0xbdb65b97	-0.08904188
248	0x3e4e490e	0.20145056
249	0x3d908a1f	0.070575945
250	0xbe0d9f69	-0.13830341
251	0x3ddb1432	0.10697211
252	0xbe50d23d	-0.203927
253	0xbd560814	-0.052253798
254	0x3e11e29e	0.14246604
255	0x3e145dde	0.14488932

lstm2.weight_hh f4 [96, 24]
0	0xbe363999	-0.1779541
1	0x3e3acd3e	0.18242356
2	0xbdac2908	-0.084062636
3	0xbda09d16	-0.07842462
4	0xbddf342b	-0.10898622
5	0xbc5b7d41	-0.013396562
6	0xbd7bd362	-0.061480887
7	0xbd88f48b	-0.06687268
8	0x3d320b30	0.0434677
9	0x3c8a4d7d	0.016882652
10	0x3e274dde	0.16338298
11	0x3e39f679	0.18160428
12	0xbe06635f	-0.13123845
13	0x3d09c2af	0.03363293
14	0xbe3f36f1	-0.18673302
15	0xbd0759be	-0.03304457
16	0x3e4736f1	0.19454552
17	0xbd228d6a	-0.039685644
18	0xbe456ed0	-0.19280553
19	0x3e1b3ae9	0.15159191
20	0x3d474bf7	0.04865643
21	0xbde9e2e5	-0.1142023
22	0xbdef3df6	-0.1168174
23	0xbdda8668	-0.10670167
24	0x3cb2a540	0.021807313
25	0x3cf1298e	0.02943876
26	0xbe42377d	-0.1896648
27	0xbd80e341	-0.06293345
28	0xbd656dff	-0.056013104
29	0xbaaaf509	-0.0013042997
30	0xbdf49379	-0.11942191
31	0xbc6c45c3	-0.014420929
32	0x3e35cfb2	0.1775501
33	0xbb2bc748	-0.002621131
34	0x3c1b6fa8	0.00948707
35	0x3dfbec53	0.12300935
36	0xbd4919f3	-0.049097013
37	0x3ba09942	0.0049010823
38	0xbe10891a	-0.141148
39	0x3d8a7be3	0.06761911
40	0x3e2c7f6a	0.1684548
41	0x3da96fe3	0.08273294
42	0x3dca73bc	0.09885356
43	0x3da776e2	0.08176972
44	0x3dc7ad38	0.09749836
45	0xbd156472	-0.036472745
46	0xbc983d94	-0.01858405
47	0xbc90c65d	-0.017672712
48	0x3d775525	0.060383935
49	0x3e24bfe9	0.16088833
50	0x3e435555	0.1907552
51	0xb96681d8	-0.0002198288
52	0xbcee3ec4	-0.029082663
53	0x3e268e93	0.16265325
54	0xbdf1f9f4	-0.11815253
55	0x3dd65f8b	0.10467442
56	0xbdb11704	-0.08646968
57	0x3bc4bc5e	0.0060039004
58	0xbe3a3b71	-0.18186738
59	0x3dbb4828	0.09144622
60	0x3dfb651b	0.12275144
61	0x3e0d1de4	0.13780934
62	0xbe1affcf	-0.15136646
63	0x3c1f55d3	0.009725052
64	0xbc49d2fd	-0.01231837
65	0xbe129a77	-0.14316736
66	0xbe40eec1	-0.18841077
67	0x3e0f84b4	0.14015466
68	0x3d6fd908	0.058556587
69	0xbe352d00	-0.17692947
70	0xbc89e682	-0.016833548
71	0x3e2c72ce	0.1684067
72	0xbda99f27	-0.08282309
73	0xbddbe9dd	-0.10737965
74	0x3c927010	0.017875701
75	0x3e49d929	0.19711746
76	0x3d0a0cd5	0.033703644
77	0xbe4f32a8	-0.20234168
78	0xbe4b861a	-0.19875374
79	0x3df608ee	0.12013422
80	0x3da0b416	0.07846849
81	0x3cd1a819	0.02559285
82	0x3e319180	0.1734066
83	0xbd27abf1	-0.04093546
84	0xbe049646	-0.1294795
85	0xbd0edd7c	-0.034879193
86	0xbe4dd750	-0.20101666
87	0xbc03a2f5	-0.008034457
88	0x3dd28d89	0.10280902
89	0x3e43b68c	0.19112605
90	0x3d9e59dc	0.07731983
91	0xbdbcea48	-0.09224373
92	0x3d05e967	0.032693293
93	0xbac733ee	-0.0015197971
94	0x3e131297	0.1436256
95	0xbd848e3d	-0.06472442
96	0xbe36e75b	-0.17861693
97	0x3e051ee9	0.13000073
98	0x3d928630	0.071545005
99	0xbdac4cb7	-0.0841307
100	0x3d85dc32	0.065361395
101	0x3dbefae3	0.093251966
102	0xbde1a179	-0.110171266
103	0x3e0056bf	0.12533091
104	0xbd8732d5	-0.06601492
105	0xbdff502f	-0.12466466
106	0x3dc926a1	0.09821821
107	0x3e002291	0.12513186
108	0xbe359bde	-0.1773524
109	0x3d06edbc	0.032941565
110	0x3e0bb109	0.13641752
111	0x3dedb9b1	0.116076834
112	0xbe142c9d	-0.14470144
113	0x3de61fdd	0.11236546
114	0xbdad0c33	-0.084495924
115	0x3d1673a7	0.03673139
116	0x3dda44b4	0.10657635
117	0x3e3f94ee	0.18709156
118	0x3dbe36bc	0.092877835
119	0x3e40fcda	0.18846455
120	0xbd942440	-0.07233477
121	0xbd86f210	-0.065891385
122	0xbda6ff23	-0.08154132
123	0xbcb8fcdb	-0.022581508
124	0x3d28e8df	0.04123771
125	0xbe1e8c3f	-0.15483187
126	0x3e2cefc4	0.16888338
127	0xbd76d978	-0.060265988
128	0xbe3501f8	-0.17676532
129	0xbe33eedb	-0.17571585
130	0x3c006841	0.007837356
131	0x3dad0045	0.08447317
132	0x3dd19f90	0.10235512
133	0x3e39ef75	0.18157752
134	0xbde4702b	-0.11154207
135	0xbddf824c	-0.10913524
136	0xbe0f333d	-0.1398439
137	0xbd160bb3	-0.03663225
138	0xbd13c0ec	-0.036072657
139	0x3d2f13f3	0.042743634
140	0x3dd7ff27	0.10546713
141	0xbdc1d91c	-0.094652385
142	0xbe3d0872	-0.18460253
143	0xbd2d8827	-0.042366173
144	0x3d27a2bb	0.040926676
145	0x3cbb9203	0.022896772
146	0xbd4bc392	-0.049747057
147	0xbe096bc7	-0.1342002
148	0x3dcffdd9	0.101558395
149	0xbe2b2e6b	-0.16716926
150	0xbd3c343e	-0.04594826
151	0x3e2ebf43	0.17065148
152	0xbddc75d1	-0.10764659
153	0x3e1cbdbe	0.15306756
154	0x3e106f8f	0.14105056
155	0x3e08f434	0.13374406
156	0x3d12a5da	0.0358027
157	0x3e301baf	0.1719806
158	0xbd73814c	-0.05944948
159	0x3d9f7d04	0.07787517
160	0xbd61a202	-0.055086143
161	0xbe376039	-0.179078
162	0x3d98e9cb	0.074664675
163	0xbc2c88ff	-0.010530709
164	0xbdf89b1e	-0.12138961
165	0xbe2c3f12	-0.16820934
166	0xbe35932f	-0.17731927
167	0x3d0ea0a8	0.034821182
168	0xbe25bccd	-0.16185303
169	0xbda5568f	-0.0807315
170	0x3de6136d	0.11234174
171	0x3db5afb4	0.08871403
172	0x3d366699	0.04453144
173	0xbdb8cb92	-0.09023203
174	0x3c72a41a	0.014809633
175	0xbcf1b5af	-0.029505579
176	0xbe05011a	-0.12988701
177	0x3e47ef21	0.19524814
178	0xbcf258fc	-0.029583447
179	0xbda890d7	-0.08230751
180	0xbd1b8fd5	-0.037978966
181	0xbdad0242	-0.08447696
182	0xbe4462ca	-0.1917831
183	0xbdaa5902	-0.08317758
184	0x3e336316	0.17518267
185	0xbda136fb	-0.07871815
186	0x3c859ad7	0.016309185
187	0x3dcfc0eb	0.10144218
188	0xbda69676	-0.08134167
189	0x3cde023d	0.027100677
190	0x3d8a9903	0.06767466
191	0xbe43164e	-0.19051477
192	0xbceecb8f	-0.029149799
193	0x3a024ec9	0.00049708463
194	0x3d80e1ea	0.0629309
195	0x3dee41b0	0.11633623
196	0xbc8a28b2	-0.016865108
197	0x3daedb23	0.08537891
198	0xbde9ba9b	-0.11412545
199	0xbe0490b0	-0.12945819
200	0xbe339394	-0.17536765
201	0x3cc41d75	0.023939827
202	0xbe15093f	-0.14554308
203	0x3e21c921	0.15799381
204	0xbbc37c19	-0.0059657213
205	0x3d437c82	0.04772616
206	0x3d4017ba	0.046897627
207	0x3dfb7439	0.12278027
208	0x3e185ae2	0.14878419
209	0x3e0451aa	0.12921777
210	0x3e443e94	0.19164497
211	0xbe3d9ea0	-0.18517542
212	0xbd637a94	-0.05553682
213	0x3c8a06b5	0.016848901
214	0xbe2d08b7	-0.16897856
215	0x3e3a57ba	0.18197528
216	0xbcc88722	-0.024478499
217	0x3e29149e	0.16511771
218	0x3d938ee2	0.07204987
219	0x3d91f967	0.07127648
220	0x3cc02a20	0.023457587
221	0x3da5ed31	0.08101881
222	0xbde5f4d2	-0.112283364
223	0x3dfbfb85	0.12303833
224	0x3dde78dc	0.10862896
225	0xbd066435	-0.03281041
226	0x3dd61a5c	0.104542464
227	0xbe33f715	-0.17574723
228	0x3e17ea1f	0.14835404
229	0xbe322a28	-0.17398894
230	0x3d23b4bb	0.03996728
231	0x3df3ee84	0.119107276
232	0xbe4d6e1d	-0.20061536
233	0xbdad5529	-0.08463509
234	0xbd96abb9	-0.07356972
235	0x3e31bceb	0.17357223
236	0xbe2828ca	-0.1642181
237	0x3e155c31	0.1458595
238	0xbe117044	-0.14202982
239	0x3dfcf16d	0.12350736
240	0xbcb96c34	-0.022634603
241	0xbc5d9efb	-0.013526673
242	0xbde720f2	-0.11285581
243	0xbd0fc8de	-0.03510367
244	0xbcddeef2	-0.027091477
245	0xbcb6bb08	-0.02230598
246	0xbdc7a4fa	-0.09748264
247	0x3e1ad6a2	0.15120938
248	0xbdab8a0c	-0.0837594
249	0xbe0e69d8	-0.13907564
250	0x3e2426fd	0.16030498
251	0x3e1355d3	0.14388208
252	0xbd7ff915	-0.062493403
253	0xbe2e0f85	-0.16998108
254	0xbdcfe892	-0.10151781
255	0x3e1952f2	0.14973047

lstm2.bias_ih f4 [96]
0	0x3d22e67d	0.039770592
1	0xbdacffe0	-0.08447242
2	0x3e4eec0c	0.20207232
3	0xbd07a201	-0.033113483
4	0x3e21556a	0.15755239
5	0xbcfbfe12	-0.030760799
6	0x3e049888	0.12948811
7	0x3e18d200	0.14923859
8	0x3cb051f9	0.021523463
9	0x3dc4b690	0.096051335
10	0x3e0c861d	0.13723035
11	0x3df18b2d	0.11794124
12	0x3d972d85	0.07381729
13	0x3cf8a274	0.030350901
14	0xbdf558a5	-0.11979798
15	0xbcd908b5	-0.02649341
16	0xbe1c1253	-0.15241365
17	0xbe0d7f03	-0.13817982
18	0xbddeefac	-0.108855575
19	0x3dc79c9e	0.09746669
20	0x3dada22d	0.08478198
21	0xbe306b35	-0.17228396
22	0xbd9040cd	-0.0704361
23	0x3e4520cb	0.19250791
24	0x3c5ab6a5	0.01334921
25	0xbcc78e82	-0.024359945
26	0xbe334a81	-0.1750889
27	0xbe110e0d	-0.14165516
28	0xbc062d66	-0.008189535
29	0xbd6da098	-0.058014482
30	0xbe1e5d6b	-0.15465324
31	0xbe38655e	-0.18007419
32	0xbe131563	-0.14363627
33	0xbcdf8aaa	-0.0272878
34	0x3dce3b4c	0.10069904
35	0xbddfceb7	-0.109280996
36	0x3d27439c	0.04083596
37	0x3e0f01a3	0.13965468
38	0xbd9c1b1c	-0.07622358
39	0x3df7eabe	0.121053204
40	0xbe34eee0	-0.17669249
41	0xbdbe26ea	-0.09284766
42	0x3defb35e	0.117041335
43	0xbe292544	-0.16518122
44	0xbe490301	-0.19630052
45	0x3d63447d	0.055485237
46	0xbd286c95	-0.041119177
47	0xbdcc410e	-0.09973346
48	0xbe3456e1	-0.17611267
49	0x3ddc5a0e	0.10759364
50	0xbe0b26d7	-0.13589035
51	0xbbb6e5cb	-0.0055815927
52	0x3e295ba5	0.16538866
53	0x3deb55fe	0.11491011
54	0xbe3ca264	-0.18421322
55	0xbd6d1ca8	-0.057888657
56	0x3b5ef390	0.0034019686
57	0x3e0d1050	0.13775754
58	0xbd995c9a	-0.074883655
59	0x3e029833	0.12753372
60	0xbe3ea5d3	-0.18617944
61	0x3e3d33f0	0.18476844
62	0x3e0599e8	0.13046992
63	0xbd137d1a	-0.036007978
64	0xbe289a2b	-0.1646506
65	0x3e2bfb88	0.1679517
66	0x3e341dfb	0.17589562
67	0x3c0c6162	0.00856814
68	0xbe0fb7e9	-0.14035
69	0x3da3a8f8	0.079912126
70	0xbd041edd	-0.032255996
71	0x3e030407	0.12794505
72	0xbe0e901f	-0.13922165
73	0xbd0aceac	-0.033888504
74	0x3dd6d8d5	0.10490576
75	0x3c88db90	0.016706258
76	0xbe444ece	-0.19170687
77	0xbd15e46f	-0.036594804
78	0x3e46b147	0.19403563
79	0x3da74ef6	0.081693575
80	0x3e14bbb0	0.14524722
81	0xbe01bd4a	-0.12669864
82	0xbe223a14	-0.15842468
83	0xbc5b45a2	-0.013383301
84	0x3df8a09a	0.12140007
85	0x3e42fc92	0.1904166
86	0x3d189574	0.037251905
87	0x3c7e455b	0.015519465
88	0xbe3f2ebf	-0.18670176
89	0x3d5bad19	0.053631876
90	0x3dd17dec	0.10229096
91	0x3e2fac3a	0.17155543
92	0x3dc9c6a3	0.0985234
93	0xbc0992de	-0.008396832
94	0x3dfbad78	0.12288946
95	0x3e2e3290	0.17011476

lstm2.bias_hh f4 [96]
0	0xbe2fb750	-0.17159772
1	0x3def785d	0.11692879
2	0xbd13a1ca	-0.036042966
3	0xbe19b133	-0.15009002
4	0x3dce80f4	0.100831896
5	0x3e3e52a1	0.18586208
6	0xbdd64397	-0.104621105
7	0x3daa5089	0.08316142
8	0x3e0b937e	0.13630483
9	0xbd9c6b61	-0.076376684
10	0x3da064a2	0.07831694
11	0xbde7c244	-0.1131635
12	0x3e11384d	0.14181633
13	0xbe13ee3c	-0.14446348
14	0x3de1efe5	0.110320844
15	0x3e07366c	0.13204354
16	0x3e4bece0	0.1991458
17	0xbd218843	-0.03943659
18	0xbdad47b0	-0.08460939
19	0xbe413047	-0.18866073
20	0x3d830cb6	0.06398909
21	0xbe361773	-0.17782383
22	0x3e17139f	0.14753579
23	0xbe1ed2a9	-0.15510048
24	0x3db5ce35	0.088772215
25	0x3e1c520b	0.15265672
26	0x3db3184d	0.087448694
27	0xbe39c4ee	-0.18141529
28	0x3d971aad	0.07378135
29	0xbdfc5d90	-0.12322533
30	0x3d3875a6	0.045034073
31	0xbc665e1f	-0.014060526
32	0xbe1e87ad	-0.15481444
33	0xbe0fc19a	-0.14038697
34	0x3d84f3ee	0.064918384
35	0xbe13fddf	-0.14452313
36	0x3c2e5efe	0.010642765
37	0x3e4964a0	0.19667292
38	0x3dda64fb	0.10663792
39	0xbe212bea	-0.15739408
40	0x3db0d8f7	0.08635133
41	0xbca1ee0b	-0.019766828
42	0x3d2dbc2e	0.04241579
43	0x3ded4d81	0.11587048
44	0x3e108563	0.14113383
45	0xbd65a403	-0.056064617
46	0xbe15cc00	-0.14628601
47	0x3d377a5f	0.044794437
48	0x3ccf34ed	0.025293792
49	0xbe4dd1e6	-0.20099601
50	0xbda58213	-0.0808145
51	0xbd4dac0a	-0.050212897
52	0x3d12b502	0.035817154
53	0x3e282f88	0.16424382
54	0xbcc3ddb8	-0.023909435
55	0xbd8762c7	-0.06610637
56	0xbe0ebfff	-0.13940428
57	0x3dc6e748	0.09712082
58	0xbd9478c2	-0.07249595
59	0x3d2953ce	0.041339688
60	0x3d5b816a	0.053590216
61	0x3d049e84	0.032377735
62	0xbe3ab99c	-0.18234867
63	0x3bca2b11	0.0061696847
64	0xbe49b388	-0.19697392
65	0x3bb80949	0.0056163413
66	0x3d4f1df7	0.050565686
67	0x3e2c9530	0.16853786
68	0xbb205549	-0.0024464896
69	0xbe509423	-0.2036901
70	0xbdea2799	-0.11433334
71	0x3e32eb8c	0.17472667
72	0x3c2cd247	0.010548181
73	0xbe41bd6e	-0.18919918
74	0xbcfd00bf	-0.030884145
75	0x3d714523	0.058903825
76	0x3df30e4c	0.11867961
77	0xbdf4ed1f	-0.1195929
78	0xbe0aca2d	-0.13553686
79	0xbc4575d1	-0.012052015
80	0xbe26bf80	-0.16283989
81	0x3dceba02	0.10094072
82	0x3bca0653	0.0061653047
83	0xbe242830	-0.16030955
84	0xbd5f370d	-0.05449586
85	0xbe14fa09	-0.14548506
86	0xbd59ff30	-0.05322188
87	0xbe290704	-0.16506582
88	0xbda71648	-0.08158547
89	0x3e282a2c	0.16422337
90	0x3de8ecd9	0.113733
91	0xbd542566	-0.05179348
92	0xbe0daba3	-0.13835005
93	0xbd784adc	-0.060618266
94	0x3d6e9b5d	0.058253635
95	0x3e19bc2f	0.15013193

layer_hid_nodes.weight f4 [6, 24]
0	0x3d12ffc4	0.03588845
1	0x3e1a4e61	0.15068962
2	0x3a42eb60	0.00074355863
3	0x3dbdccef	0.092676036
4	0xbd3ee7ea	-0.04660789
5	0x3dfa7cb9	0.1223082
6	0x3e263bf3	0.16233806
7	0x3dfc9c00	0.12334442
8	0x3c114dda	0.008868659
9	0xbdf2e090	-0.11859238
10	0xbe11f6c2	-0.14254287
11	0x3e067386	0.13130006
12	0xbdd55ccb	-0.104180895
13	0x3de80609	0.11329276
14	0x3bf3334c	0.0074218865
15	0xbd8022ad	-0.06256614
16	0x3e346ffb	0.17620842
17	0x3d9b96fa	0.07597156
18	0xbdf9b30f	-0.12192356
19	0x3d0047a6	0.03131833
20	0xbdf704ae	-0.120614395
21	0x3e25d65e	0.16195056
22	0xbe2c7243	-0.16840462
23	0x3dfa3395	0.1221687
24	0x3e276610	0.16347528
25	0x3dcad9fd	0.09904859
26	0xbd02a97e	-0.03189992
27	0xbdf62558	-0.120188415
28	0x3e11981a	0.14218178
29	0xbe17cba8	-0.14823782
30	0x3e50fd6b	0.20409171
31	0xbd843bdf	-0.06456732
32	0xbe123d02	-0.14281085
33	0xbe416b1e	-0.18888518
34	0x3e2ea3ba	0.17054644
35	0xbe26826b	-0.16260688
36	0x3cc1b2c2	0.023644809
37	0x3be858c2	0.007090659
38	0xbdbfc21c	-0.09363195
39	0x3de53bcb	0.11193045
40	0x3e2ecbfa	0.17069998
41	0x3d85f435	0.065407194
42	0x3e3419b7	0.17587934
43	0x3d70962d	0.05873697
44	0xbdfc44a9	-0.123177834
45	0xbd9a7894	-0.0754253
46	0x3dc1afb5	0.094573416
47	0x3d26aecd	0.040694047
48	0xbd165b56	-0.0367082
49	0x3e0125d1	0.12612082
50	0xbdbb3a33	-0.0914196
51	0x3e272362	0.16322091
52	0x3bc075db	0.0058734245
53	0xbe1affa5	-0.15136583
54	0xbe231200	-0.15924835
55	0xbd6c735c	-0.057727203
56	0x3db9818c	0.09057912
57	0x3bf4adf2	0.007467025
58	0xbe05e697	-0.13076244
59	0xbe3448d7	-0.17605911
60	0xbe32ebc0	-0.17472744
61	0x3d817be3	0.06322458
62	0xbe25eede	-0.16204402
63	0xbe4089b1	-0.18802525
64	0x3d5cc19c	0.053895578
65	0xbe42ca3e	-0.19022462
66	0x3dbd036a	0.09229167
67	0xbd2c3915	-0.042046625
68	0xbcff490d	-0.031162763
69	0x3d5bfb3a	0.053706385
70	0x3e45be03	0.19310765
71	0xbd82165f	-0.06351923
72	0xbd127354	-0.035754517
73	0x3d268be6	0.04066076
74	0xbe3fd3f4	-0.18733197
75	0x3e4d554b	0.20052068
76	0xbdef4ed0	-0.11684954
77	0xbd5e5043	-0.054275762
78	0xbe50d618	-0.2039417
79	0xbe00aa40	-0.12564945
80	0xbdbb37b7	-0.09141486
81	0xbd8253f1	-0.06363667
82	0x3e4cabc8	0.19987404
83	0xbcc11c10	-0.023572952
84	0xbd27d285	-0.04097225
85	0x3da99026	0.08279447
86	0x3e301832	0.1719673
87	0x3c3953c3	0.011311474
88	0x3d44ff8d	0.048095275
89	0x3e025386	0.12727174
90	0x3bd42f46	0.006475362
91	0xbe2cbb03	-0.16868214
92	0xbe3f7ebe	-0.18700692
93	0x3e3d6ff0	0.18499732
94	0xbe2dc424	-0.16969353
95	0x3de8e39d	0.11371539
96	0x3b5dc718	0.0033840593
97	0xbd973349	-0.07382829
98	0xbd50bbe7	-0.050960448
99	0xbdeabf46	-0.11462264
100	0xbccf799d	-0.025326544
101	0x3dd05861	0.10173107
102	0x3d000a62	0.0312599
103	0x3e05142e	0.12995979
104	0x3dbe3375	0.092871584
105	0xbd387acd	-0.045038987
106	0x3dbba85d	0.09162972
107	0x3a45d263	0.00075463037
108	0x3da87498	0.082253635
109	0xbe45628d	-0.19275875
110	0x3e2804ed	0.16408129
111	0x3d8e6579	0.06952948
112	0x3ca6fa82	0.020383123
113	0xbd834991	-0.06410516
114	0x3de7fa53	0.113270424
115	0xbe147720	-0.14498568
116	0x3e46c5e6	0.1941143
117	0xbd3cf2d7	-0.046130028
118	0x3e22a69c	0.15883869
119	0x3d907761	0.0705402
120	0x3de72a87	0.11287408
121	0x3db51f49	0.08843858
122	0xbd52b100	-0.05143833
123	0x3d5d5d82	0.054044254
124	0xbdf0f989	-0.11766345
125	0x3e066ebd	0.13128181
126	0xbd8a25d9	-0.067455
127	0x3e434011	0.19067408
128	0xbd82e265	-0.063908376
129	0x3dc1abe2	0.09456612
130	0x3d663a3f	0.05620789
131	0x3d19e2bd	0.03756975
132	0xbe032fe1	-0.12811233
133	0xbc9f40cc	-0.019440077
134	0xbe36c6d5	-0.17849286
135	0x3d9880f0	0.07446468
136	0xbdc6387c	-0.09678742
137	0xbc6dbcbd	-0.014510331
138	0x3ce9f42b	0.028558811
139	0x3ce55dbe	0.027998801
140	0xbe1e2343	-0.15443139
141	0x3ddc81e6	0.10766964
142	0x3e01d9f8	0.12680805
143	0x3d844652	0.06458725

layer_hid_nodes.bias f4 [6]
0	0xbda7e1c7	-0.081973605
1	0x3dd6a8b2	0.10481395
2	0xbe2c6378	-0.1683482
3	0x3de5bcfe	0.11217688
4	0x3e43df28	0.19128096
5	0x3e076c08	0.13224804

layer_act_func.weight f4 [5, 24]
0	0xbc8d98e1	-0.017284812
1	0xbe306839	-0.17227258
2	0x3e3e7dc8	0.18602669
3	0x3d05daf6	0.03267952
4	0xbde7f0cf	-0.113252275
5	0xbd6f3ec3	-0.058409464
6	0x3cfbff31	0.030761333
7	0x3cf91b58	0.030408546
8	0x3dce3ff1	0.100707896
9	0xbdcd23b9	-0.10016579
10	0x3e34b0ab	0.17645518
11	0x3d272467	0.0408062
12	0xbe05c07b	-0.13061707
13	0x3e28dac7	0.16489707
14	0x3dcf7f09	0.10131652
15	0xbd2fb30a	-0.042895354
16	0x3bd98d3c	0.006639151
17	0xbdb5029b	-0.088383876
18	0x3c3df502	0.011594059
19	0x3e0496d1	0.12948157
20	0x3d5e6529	0.054295693
21	0xbe2688f1	-0.16263177
22	0x3cd291b8	0.02570425
23	0x3d7d2972	0.061807103
24	0xbd35309c	-0.04423581
25	0x3cfc6385	0.030809173
26	0x3e1dc839	0.1540841
27	0x3e20ee29	0.15715851
28	0xbdf3b386	-0.11899476
29	0x3e366ac7	0.1781417
30	0xbd9a1045	-0.075226344
31	0xbcab70e3	-0.020927852
32	0xbe0fbedc	-0.14037651
33	0x3daba7d9	0.08381624
34	0x3ceca599	0.028887557
35	0xbde6d357	-0.112707786
36	0xbcb58396	-0.022157472
37	0xbdf87544	-0.12131742
38	0xbcec599d	-0.028851325
39	0x3cf49c3d	0.029859656
40	0x3d8f4d45	0.0699716
41	0xbe474ab7	-0.19462095
42	0xbcea41d7	-0.028595848
43	0xbd946a4e	-0.072468385
44	0x3d7350aa	0.0594031
45	0xbe1f24b1	-0.1554134
46	0x3e1162e3	0.14197879
47	0xbe3b7093	-0.18304662
48	0xbe337ce0	-0.17528105
49	0xbe25b1f8	-0.16181171
50	0xbde32da3	-0.11092689
51	0xbe2c1326	-0.1680418
52	0xbb5c0c24	-0.0033576572
53	0x3d941dc2	0.07232238
54	0xbd1ce4ab	-0.038304012
55	0x3ce89133	0.028389549
56	0xbe424713	-0.18972425
57	0xbe19ece1	-0.15031768
58	0x3dc79d14	0.09746757
59	0x3da5a82f	0.08088719
60	0x3d2ea68a	0.042639293
61	0x3dc50c38	0.09621471
62	0x3de094db	0.10965892
63	0x3e3e1d23	0.18565802
64	0x3d9dd3e3	0.0770643
65	0x3e384d3b	0.17998211
66	0x3db343d4	0.087531716
67	0x3df73c5b	0.12072059
68	0xbce3bea8	-0.027800873
69	0x3d867d98	0.06566924
70	0x3a1fdacf	0.00060979737
71	0x3cd7abcf	0.026327042
72	0xbd4d6fe0	-0.05015552
73	0xbe11e86b	-0.14248817
74	0xbe491e86	-0.1964055
75	0x3c9a27ae	0.018817749
76	0xbe376462	-0.17909387
77	0xbde401a2	-0.11133124
78	0xbe374bf7	-0.17900072
79	0xbd217885	-0.039421577
80	0x3e22c227	0.15894376
81	0x3d087e27	0.033323433
82	0xbd90e85d	-0.0707557
83	0x3e39ab53	0.18131761
84	0x3d05d967	0.032678034
85	0xbc99e220	-0.018784583
86	0xbe172d93	-0.14763479
87	0xbe400e12	-0.18755367
88	0x3ddd65ac	0.10810408
89	0xbc431729	-0.011907377
90	0x3d528ecf	0.051405724
91	0x3e298550	0.16554761
92	0x3da3aa80	0.07991505
93	0x3dc9e77a	0.09858604
94	0xbdb19b99	-0.08672256
95	0x3d7865e7	0.060644057
96	0x3e1c327e	0.15253636
97	0xbd46aeb6	-0.04850646
98	0xbe3c5dea	-0.183952
99	0x3d2a1edc	0.041533336
100	0x3ca71715	0.020396749
101	0x3e14267f	0.1446781
102	0xbbbb4aed	-0.005715719
103	0xbdca063f	-0.098644726
104	0x3dec6ec1	0.11544562
105	0x3dc14161	0.09436298
106	0x3d861b69	0.06548197
107	0x3e42d405	0.19026192
108	0xbe0fba87	-0.14035998
109	0xbe3a5c87	-0.18199359
110	0xbdfee9ad	-0.12446914
111	0x3e4a6451	0.1976483
112	0xbd8fcaa7	-0.07021075
113	0x3cc77ccd	0.024351502
114	0xbe355d61	-0.17711402
115	0x3e50e20f	0.20398735
116	0x3e4e3858	0.20138681
117	0xbcae8ba5	-0.021306822
118	0xbd9a70fc	-0.07541081
119	0xbdb8af7b	-0.09017845

layer_act_func.bias f4 [5]
0	0xbe05165b	-0.12996809
1	0xbe509224	-0.20368248
2	0xbe39b20f	-0.1813433
3	0x3db4fe83	0.08837607
4	0x3d9b4417	0.075813465
